src/core/control/models/1d_md_v1.tflite (tflite, 1792 bytes, 4 tensors)

eval_net/l2/b2 f4 [1, 3]
0	0x3fc5a6c2	1.5441515
1	0x3fde7715	1.7380091
2	0x3ff5b29c	1.9195132

eval_net/l1/b1 f4 [1, 10]
0	0xc0598edf	-3.3993452
1	0x3fcfc757	1.6232709
2	0x3fa7a2b1	1.3096524
3	0x3d157c66	0.03649559
4	0xbfc22cb6	-1.5169895
5	0xbe1d4f57	-0.15362297
6	0xbf3ab7ba	-0.72936594
7	0x3c3036e6	0.010755276
8	0xc070577b	-3.7553394
9	0x40b008f0	5.501091

eval_net/l1/MatMul f4 [10, 2]
0	0x3ed7bb81	0.42135242
1	0x3fe53cf7	1.790923
2	0xbf2b5b03	-0.6693575
3	0x40360c32	2.8444943
4	0xbfaebfb3	-1.3652252
5	0xc051af67	-3.2763307
6	0xbe284a41	-0.16434576
7	0xc00f6148	-2.2403126
8	0xbe2783a1	-0.16358806
9	0x407346ec	3.8012037
10	0xbf59a881	-0.8502274
11	0xbfbebe5e	-1.4901845
12	0xbf8b448c	-1.0880294
13	0x403613cc	2.8449583
14	0xbf5c416b	-0.8603732
15	0x3fe9611c	1.823276
16	0x3f5c0a08	0.85952806
17	0x3f10ac6d	0.565131
18	0xbf8e2ec6	-1.1108024
19	0xbf28795e	-0.6581019

eval_net/l2/MatMul f4 [3, 10]
0	0xc09e237b	-4.941831
1	0xbf6236ce	-0.88364875
2	0xc041a3a7	-3.0256135
3	0xbfc20ec3	-1.5160755
4	0x3fcf33dd	1.6187702
5	0xc00eb171	-2.2295802
6	0x3ee11fd5	0.43969598
7	0xbf6f39b4	-0.93447423
8	0xc08cef3e	-4.4042044
9	0xc0edcb2e	-7.431052
10	0xc0a2f28d	-5.0921082
11	0xbfa49f9c	-1.2861209
12	0xc0330648	-2.7972584
13	0xbf492a49	-0.7858015
14	0x3fface46	1.95942
15	0xbfb03242	-1.3765337
16	0x3f103dd0	0.5634432
17	0xbf99b5f8	-1.2008657
18	0xc0a083f6	-5.0161085
19	0xc0e4c042	-7.148469
20	0xc0bd195e	-5.9093466
21	0xc007c8f5	-2.1216404
22	0xc06bcb18	-3.6842709
23	0xbf27dae1	-0.6556836
24	0x4026552e	2.598949
25	0x3e5480bd	0.20752235
26	0x3f5138e5	0.8172744
27	0xbfbdcb5e	-1.4827688
28	0xc0a7d1f6	-5.24438
29	0xc0d13519	-6.5377316
