src/core/control/models/1d_md.tflite (tflite, 1792 bytes, 4 tensors)

eval_net/l2/b2 f4 [1, 3]
00000000: 5de3 23bf c976 09bf 0eb8 abbe
-0.64018804 -0.53696877 -0.3353886

eval_net/l1/b1 f4 [1, 10]
00000000: 2d09 9440 8f2b b3c0 c1b9 46bd 9859 a5c0
00000010: 3de6 0940 a9fa 2740 d987 5ebe dd7e 86be
00000020: da2e 1ebd fe17 c13d
4.62612 -5.599067 -0.048516992 -5.1671867 2.1546776 2.624674 -0.2173151 -0.26268664
-0.0386189 0.09428404

eval_net/l1/MatMul f4 [10, 2]
00000000: d3eb 6ebf 452e b9be f496 013f c5c0 853f
00000010: bd78 ccbc 8a58 423d 50e3 843f 2e3d 973e
00000020: 1181 d7be 8e9b 1b3f 096b 15c0 22f1 6fc0
00000030: d24e bdbf 8ce1 4ac0 ceda eebf dbd5 13c0
00000040: 3d09 cfbb 8b5b 673c 9722 00be 70b5 0340
-0.9332859 -0.36168113 0.5062096 1.0449454 -0.024959916 0.04744772 1.038187 0.29538864
-0.42090657 0.6078423 -2.334658 -3.7490926 -1.4789679 -3.1700163 -1.8660524 -2.3099277
-0.00631824 0.014120947 -0.12513195 2.057949

eval_net/l2/MatMul f4 [3, 10]
00000000: ddcc efc0 541e a6c0 5e60 da3d a790 cfc0
00000010: cd62 87bf ed5b 70c0 0f82 b9bf f656 cbbf
00000020: 765c 8fbd 5b36 a9bf 2e9e dac0 83db 9bc0
00000030: 87e2 8b3e 4634 d6c0 ba8c 0dc0 acff 77c0
00000040: b4d5 90bf cd94 afbf b458 c43e d849 bebf
00000050: 8ac9 d9c0 3d72 abc0 0de2 283e 9ef2 08c1
00000060: d9c4 1ac0 5d99 05c0 b052 e2be 385f 9c3f
00000070: d68a 30be d920 b0bf
-7.4937577 -5.191202 0.10662912 -6.4864078 -1.0577027 -3.7556107 -1.4492816 -1.5885913
-0.070000574 -1.3219713 -6.831809 -4.870546 0.27321264 -6.693881 -2.2117143 -3.87498
-1.1315217 -1.3717285 0.38348925 -1.4866285 -6.805852 -5.357695 0.16492482 -8.559233
-2.4182646 -2.0874856 -0.4420371 1.2216558 -0.17240462 -1.3760024
