src/core/control/models/mountain_car.tflite (tflite, 1792 bytes, 4 tensors)

eval_net/l2/b2 f4 [1, 3]
0	0x3ef5d199	0.48011473
1	0x3e099fae	0.13439819
2	0x3c60ae7a	0.013713473

eval_net/l1/b1 f4 [1, 10]
0	0xbcb82d93	-0.022482669
1	0xbc1a117d	-0.009403584
2	0x3f0cedce	0.5505036
3	0xbf160a3b	-0.5860936
4	0xbcac9ec8	-0.021071807
5	0xbdf464a4	-0.11933258
6	0xbd955011	-0.07290662
7	0xbf4863da	-0.7827736
8	0x3fa52d7f	1.2904509
9	0xbd005600	-0.031332016

eval_net/l1/MatMul f4 [10, 2]
0	0xbfbd266c	-1.477735
1	0x3fa595d8	1.2936354
2	0x3b180fa3	0.002320268
3	0x3df2acf8	0.118493974
4	0x3f9224b5	1.1417452
5	0x40ca20af	6.3164897
6	0xbfba76a2	-1.4567454
7	0xc09cd917	-4.9015
8	0x3d2d7ab7	0.042353358
9	0xbd3b83a7	-0.04577985
10	0xbee20325	-0.44143024
11	0x403e765e	2.9759746
12	0x3df00611	0.11719907
13	0x3eb4a1eb	0.35279784
14	0xbfb022ed	-1.3760659
15	0xc0b52926	-5.661273
16	0x403ea608	2.9788837
17	0x40de4c94	6.946848
18	0xbf81ebe6	-1.0150115
19	0x3eafe0a8	0.34351087

eval_net/l2/MatMul f4 [3, 10]
0	0x3ecd897a	0.4014395
1	0xbe57ccda	-0.21074238
2	0x3fbbc9b0	1.4670925
3	0x3fd03b7d	1.6268154
4	0xbed692dc	-0.4190892
5	0xc022efd2	-2.5458875
6	0xbeeca073	-0.46216163
7	0x405893ad	3.3840134
8	0x40237680	2.5541077
9	0x3f391977	0.7230448
10	0x3f72b413	0.9480602
11	0xbd9dc4e7	-0.07703572
12	0x40060364	2.093957
13	0x3fff1b22	1.9930155
14	0x3e77dace	0.24204561
15	0xc01855d5	-2.3802388
16	0xbec01ca3	-0.37521848
17	0x4022684d	2.537616
18	0x4031c68f	2.777744
19	0x3e8b3d4d	0.27195206
20	0x3f6211b6	0.88308275
21	0xbd14aa98	-0.036295503
22	0x4031a2b9	2.7755568
23	0x3ebaa13d	0.3645114
24	0xbe34d859	-0.17660655
25	0xbe2ec374	-0.17066747
26	0xbdc01373	-0.0937871
27	0x40393d5a	2.8943696
28	0x4029d555	2.6536458
29	0x3f3276f3	0.6971275
