src/control/models/mc_fail_custom.tflite (tflite, 4696 bytes, 6 tensors)

Add_1/ReadVariableOp f4 [20, 1]
000000 48 53 9e 3e d0 31 35 3f 40 3a a3 3c e4 56 b4 3e
       0.30922914 0.7077913 0.019925237 0.35222542
000010 22 09 67 3f d8 9b f9 3e c8 0f cb 3e 7c cd a7 3e
       0.9024831 0.48751712 0.39660478 0.3277396
000020 5e a8 7a 3f 10 17 88 3e 60 af c2 3d a2 a4 22 3f
       0.9791316 0.26580095 0.095061064 0.6353246
000030 58 0b 7b 3e 6c 57 3c 3f e4 e5 13 3f a0 b5 89 3d
       0.24516046 0.73570895 0.5777266 0.06724095
000040 2a 1e 43 3f 80 ca 3f 3d 00 9a 22 3d b8 68 4b 3f
       0.762179 0.04682398 0.039697647 0.79456663

Add_2/ReadVariableOp f4 [3, 1]
000000 5c 45 58 3f 08 fa 9b 3e 00 d9 ca 3d
       0.84480834 0.30464196 0.09904671

Add/ReadVariableOp f4 [20, 1]
000000 80 e0 af 3c b2 fe 7a 3f be 72 24 3f f4 af d9 3e
       0.021469355 0.98044884 0.6423758 0.42517054
000010 e0 9b 24 3e b0 63 4f 3e 4a b0 4c 3f d0 2b 93 3d
       0.16075087 0.20252872 0.79956496 0.07186091
000020 a6 01 73 3f 50 32 d6 3d 20 a5 c5 3d 00 5f 2c 3f
       0.9492439 0.10458815 0.09650636 0.6733246
000030 80 5b b7 3e 44 6f aa 3e f2 d7 1e 3f 10 b1 fc 3e
       0.35811996 0.33288014 0.62048256 0.49353838
000040 88 dc 13 3f 22 79 35 3f c0 90 38 3e 04 43 3b 3f
       0.5775838 0.7088796 0.18023968 0.7314913

MatMul_1/ReadVariableOp f4 [20, 20]
000000 c0 44 be 3c 22 cb 0f 3f 30 6e ba 3d 92 3b 4f 3f
       0.023226142 0.5616933 0.09103048 0.8095027
000010 72 e2 0d 3f 74 3b 52 3f cc 77 d6 3e d8 5e 64 3f
       0.55423653 0.8212197 0.41888273 0.8920722
000020 0a 58 33 3f ca 88 7f 3f 28 df df 3e b0 80 d5 3e
       0.7005621 0.998181 0.43724942 0.41699743
000030 10 45 3e 3e c0 39 07 3d b0 8b d7 3d b0 f3 56 3e
       0.18581033 0.03301406 0.1052469 0.20991397
000040 00 dc e6 3c 90 53 3f 3f 6c 8f 40 3f 9a 60 24 3f
       0.028181076 0.7473688 0.75218844 0.642099
000050 ec e4 54 3f 94 81 32 3f 78 46 d2 3e a0 15 73 3d
       0.8316181 0.6972897 0.41069388 0.059346795
000060 0c 78 77 3f 50 38 bb 3d 64 61 96 3e 68 15 1b 3f
       0.9666755 0.091416 0.29371178 0.6057954
000070 c0 43 d1 3d 8e 02 0c 3f f8 2e 40 3e 38 ee 64 3e
       0.102180004 0.546914 0.18767917 0.22356498
000080 20 af b9 3e 50 c4 e7 3e 58 a6 a4 3e 10 34 fb 3e
       0.36266422 0.45266962 0.3215816 0.49063158
000090 38 a4 bf 3e 70 f3 5a 3e c0 86 e0 3d 34 ca be 3e
       0.37429976 0.21381927 0.109632015 0.37263644
0000a0 c0 97 cb 3e 94 c7 8e 3e d8 ed 20 3e a8 9d 80 3e
       0.39764214 0.2788664 0.1571573 0.25120282
0000b0 14 bf 1e 3f 1c 80 f5 3e 50 3b 70 3e bc 35 87 3e
       0.6201031 0.47949302 0.23460126 0.26408184
0000c0 14 1c 33 3f 60 27 c1 3e 7c 36 ae 3e 30 27 76 3f
       0.6996472 0.37725353 0.34025943 0.96153545
0000d0 30 5f b1 3d 7e 70 5f 3f b2 5a 69 3f 30 46 20 3e
       0.08660734 0.87281024 0.91154015 0.15651774
0000e0 40 95 a5 3c 50 c6 32 3f 50 00 a0 3e d6 3e 18 3f
       0.02021277 0.6983385 0.31250238 0.5947088
0000f0 bc a1 0d 3f b0 42 25 3e 40 42 eb 3e 0e 77 54 3f
       0.5532491 0.1613872 0.45948982 0.82994163
000100 d0 2d 2c 3e 36 05 2f 3f b0 45 c8 3e 60 c2 39 3d
       0.16814351 0.68367326 0.39115667 0.045351386
000110 7e e9 0b 3f e8 fd a4 3e d8 95 a4 3e 7a 1f 7e 3f
       0.54653156 0.32224965 0.32145572 0.9926678
000120 a4 fc ee 3e 08 4e 4f 3e f0 c5 ef 3d cc 0c 72 3f
       0.46677125 0.2024461 0.117076755 0.94550776
000130 00 00 3e 37 f8 ac 4e 3e bc 28 4c 3f 2e 01 36 3f
       1.13248825e-05 0.2018317 0.79749656 0.7109555
000140 6e c8 35 3f 58 f7 46 3f 40 ec a3 3c ce e3 40 3f
       0.71008956 0.77721167 0.020010114 0.753476
000150 80 7e 69 3c ec cd 0c 3f 00 47 78 3f 00 20 e2 3b
       0.014251351 0.5500171 0.9698334 0.0069007874
000160 fc 23 88 3e 6e dd 72 3f 20 66 9d 3d da 54 7b 3f
       0.26589954 0.94869125 0.076854944 0.9817635
000170 c8 85 7c 3e 50 17 b9 3e 10 9a 5a 3f c8 4b 51 3e
       0.24660408 0.361506 0.8539133 0.20439065
000180 ce 0f 1a 3f 62 f4 08 3f e4 13 e9 3e 70 89 b9 3d
       0.60180366 0.534979 0.45522988 0.09059417
000190 74 86 71 3f fa a5 70 3f 0a 9f 7e 3f d8 1d 20 3e
       0.94345784 0.9400326 0.99461424 0.15636384
0001a0 68 93 09 3e fa 4b 31 3f 54 85 a1 3e b8 f7 4e 3e
       0.13435137 0.69256556 0.31547034 0.20211685
0001b0 94 ff 41 3f 18 cd 27 3e c0 df e0 3d 90 50 e1 3e
       0.75780606 0.16386831 0.10980177 0.44006777
0001c0 7a c6 3e 3f 24 e6 23 3f 60 ba c5 3e 18 dd 64 3e
       0.745216 0.6402304 0.38618755 0.22349966
0001d0 28 f2 13 3e a8 fb 38 3e 60 ab cb 3d 40 0f fa 3e
       0.14447844 0.18064749 0.099447966 0.4883976
0001e0 c0 11 e3 3d b0 98 1b 3f 80 c7 07 3f d8 21 78 3e
       0.1108737 0.6077986 0.5303879 0.2423166
0001f0 8c 1f 03 3f 90 ff 87 3e f0 25 99 3e f8 08 7a 3e
       0.5122001 0.26562166 0.29911757 0.24417484
000200 3c 1e 5f 3f 00 64 15 3e 80 bf 41 3c 70 da a8 3e
       0.8715551 0.14588928 0.011825442 0.32979155
000210 08 36 72 3f 7c 30 50 3f 8c 6f a8 3e 08 ef 14 3f
       0.94613695 0.8132398 0.32897604 0.5817723
000220 60 d5 63 3e 18 5d 41 3f e4 29 3b 3f 20 fa 22 3f
       0.22249365 0.75532675 0.73110795 0.6366291
000230 9c de b8 3e 52 15 21 3f 68 ef c0 3e a0 7d 01 3e
       0.36107337 0.6292316 0.37682652 0.12645578
000240 00 a7 95 3b 64 8d 59 3f 00 0a be 3d 48 90 9f 3e
       0.004567027 0.8498137 0.09279251 0.31164765
000250 fa 2f 07 3f e6 eb 39 3f 00 c8 eb 3c 56 7e 45 3f
       0.5280758 0.7262558 0.02878189 0.771459
000260 00 34 04 3f 94 7d 51 3f 80 11 8e 3d a4 3c 91 3e
       0.51641846 0.8183224 0.069369316 0.28366578
000270 e0 43 96 3e a0 3d 45 3e e0 44 3e 3f 9e 1c 66 3f
       0.2934866 0.1926179 0.74323845 0.89887416
000280 2a 93 18 3f a8 d3 8e 3e 00 ac 57 3d 48 d1 b5 3e
       0.59599555 0.27895856 0.052654266 0.3551123
000290 cc 11 8f 3e 50 ad 15 3e b0 76 4e 3e e4 21 34 3f
       0.27943265 0.14616895 0.20162463 0.70364213
0002a0 4c da da 3e 88 d3 73 3f 20 d2 88 3d 68 4b 51 3e
       0.42744672 0.95244646 0.06680703 0.20438921
0002b0 e0 64 25 3e 2a af 2f 3f 3e f8 48 3f 40 47 62 3e
       0.16151762 0.68626654 0.7850379 0.22097492
0002c0 f8 3e d4 3e 0c 61 ee 3e a4 ee 47 3f 30 d4 2d 3e
       0.4145429 0.46558416 0.7809851 0.16975474
0002d0 f0 7d de 3e e2 62 69 3f d6 a6 26 3f cc d2 3d 3f
       0.43455458 0.9116651 0.6509832 0.74149776
0002e0 d8 0d 9e 3e 78 d9 6b 3e 00 c2 7c 3f 62 68 4a 3f
       0.30869937 0.23032176 0.9873352 0.79065526
0002f0 20 73 c4 3d e0 fa 38 3f f8 f0 1d 3e 80 3d ec 3e
       0.09592271 0.72257805 0.15423954 0.4614067
000300 0c 6d 2e 3f 18 79 60 3e e2 0a 5a 3f 28 24 0c 3f
       0.6813514 0.21921194 0.85172856 0.5474267
000310 54 a1 f1 3e 62 69 56 3f a4 d2 63 3f 5c 9f 70 3f
       0.47193396 0.8375455 0.8899329 0.93993163
000320 c8 ef 26 3f d0 3e ea 3d ba 9a 7b 3f 96 ff 67 3f
       0.6520963 0.11437762 0.9828297 0.9062437
000330 1c 21 3c 3f 58 37 b2 3e 08 3c 33 3e e4 df a4 3e
       0.7348802 0.3480785 0.17503369 0.32202065
000340 c0 ca c1 3e 54 67 bd 3e 00 7f 85 3c 7e ca 4a 3f
       0.37849998 0.36992896 0.01629591 0.7921523
000350 48 85 ea 3e 5e a3 02 3f f4 2c b1 3e b4 09 c5 3e
       0.4580481 0.5103053 0.3460461 0.38483965
000360 30 e0 8b 3e 00 48 46 3b 60 8f 32 3d 40 45 de 3e
       0.2731948 0.0030255318 0.043593764 0.4341221
000370 3e 22 38 3f 08 d1 6e 3e 20 3e 1c 3d fc e5 fd 3e
       0.7192725 0.23321927 0.038145185 0.49589527
000380 dc f2 ea 3e e0 47 8d 3e 0c 8d 04 3f b0 37 e3 3d
       0.45888412 0.275939 0.5177772 0.11094606
000390 e0 92 c8 3d 28 9b 77 3f 30 00 9a 3d 7e 5a 11 3f
       0.09793639 0.96721125 0.07519567 0.56778705
0003a0 e0 19 84 3d 68 5e 5a 3e b4 62 ff 3e 5e 77 58 3f
       0.06450248 0.21325076 0.49879992 0.8455714
0003b0 00 28 04 3f 94 93 63 3f 7c 55 ce 3e b8 53 16 3e
       0.51623535 0.8889706 0.40299594 0.14680374
0003c0 00 00 fd 37 c8 f6 06 3f 68 5e 7d 3f 00 12 8d 3b
       3.015995e-05 0.5272031 0.9897218 0.0043051243
0003d0 72 b5 22 3f d0 68 44 3e 50 17 ab 3d a8 b6 ec 3e
       0.63558114 0.19180608 0.08354056 0.46233106
0003e0 a6 98 29 3f 80 ec 28 3c 40 03 0d 3f 48 24 6b 3f
       0.6624855 0.010310292 0.55083084 0.91852236
0003f0 ce 08 4a 3f 70 00 bd 3e 00 3a 44 3f a0 f8 db 3e
       0.78919685 0.36914396 0.76651 0.42963123

MatMul_2/ReadVariableOp f4 [3, 20]
000000 a8 06 6e 3e 78 fb 70 3f e4 14 21 3f 08 4a 2f 3e
       0.23244727 0.9413371 0.629225 0.17118084
000010 f8 3b 48 3f 90 62 87 3e 62 f6 72 3f b0 5c 67 3e
       0.78216505 0.26442385 0.949072 0.22593951
000020 d8 a8 34 3f 06 3c 0a 3f c0 26 7c 3e 80 78 63 3e
       0.70570135 0.5399784 0.24624157 0.22213936
000030 58 a3 a2 3e b8 d6 08 3f 34 33 27 3f 80 2f fb 3d
       0.31765246 0.53452635 0.65312505 0.12264919
000040 94 46 d1 3e 76 c5 56 3f e2 ac 1a 3f 40 e6 85 3d
       0.4087416 0.8389505 0.6042005 0.06538057
000050 20 06 25 3d b4 02 74 3f 2a 55 07 3f 88 2f c1 3e
       0.040289044 0.95316625 0.52864325 0.37731576
000060 50 46 26 3f 68 b8 f9 3e 00 82 54 3f a2 00 25 3f
       0.6495104 0.48773503 0.83010864 0.6445409
000070 82 bc 6c 3f 00 81 86 3c b0 df 1e 3f 80 82 ed 3e
       0.9247514 0.016418934 0.6206007 0.46388626
000080 50 40 d7 3d 94 d8 ef 3e 10 28 dc 3e 80 b6 8e 3e
       0.105103135 0.46844923 0.42999315 0.2787361
000090 48 2c 2f 3e 50 fc 95 3d d2 de 1d 3f 16 6a 5e 3f
       0.17106736 0.073235154 0.6166812 0.86880624
0000a0 98 3b 60 3f 98 ac 54 3f c6 cc 19 3f 4e e7 12 3f
       0.8759093 0.8307586 0.60078084 0.5738419
0000b0 f8 f3 b4 3e e4 10 b0 3e 24 39 3a 3f 52 54 0a 3f
       0.35342383 0.34387887 0.7274344 0.5403491
0000c0 a0 63 cf 3e bc b8 b8 3e 1e e6 5e 3f f0 87 14 3f
       0.40505695 0.3607844 0.8706988 0.58019924
0000d0 ba eb 12 3f a0 89 64 3d 34 a9 16 3f 06 d2 6b 3f
       0.5739094 0.055795312 0.58851933 0.92117345
0000e0 7a 01 60 3f 56 80 52 3f 40 8d f5 3e 60 bb 55 3f
       0.87502253 0.82227075 0.47959328 0.83489037

MatMul/ReadVariableOp f4 [20, 2]
000000 c0 7a 75 3d 7e 8d 1f 3f 9a df 73 3f bc ad 89 3e
       0.059931517 0.62325275 0.95263064 0.2689036
000010 c4 a7 db 3e 4a bc 1e 3f d0 04 34 3e 24 7e 36 3f
       0.42901433 0.62006056 0.17579961 0.71286225
000020 4c 2e 25 3f d0 0f 1e 3e dc c8 0f 3f 0a 2f 77 3f
       0.6452377 0.1543572 0.5616586 0.9655615
000030 ee e2 65 3f 30 1b d3 3d bc 8a b0 3e 9c 47 33 3f
       0.8979939 0.1030792 0.34480846 0.7003114
000040 e4 aa 8e 3e d6 f8 3a 3f 2a b0 23 3f b0 9b 67 3e
       0.27864754 0.73035944 0.6394068 0.22617984
000050 3a c0 74 3f 88 c4 45 3e f0 c5 0f 3e 8a 79 7b 3f
       0.95605814 0.19313252 0.14040351 0.9823233
000060 b8 db 20 3f c4 b3 b8 3e d0 53 bd 3d 8c b2 5a 3f
       0.62835264 0.3607465 0.092445016 0.8542869
000070 b2 4a 6c 3f 48 2e 65 3e c0 80 ac 3e 1a 76 07 3f
       0.92301476 0.22380936 0.33691978 0.52914584
000080 90 71 eb 3e 80 3f 24 3e f0 ec 07 3f 68 f6 42 3e
       0.4598508 0.16039848 0.5309591 0.19039309
000090 8c 70 79 3f 84 0a 52 3f e8 33 81 3e 0c 68 fd 3e
       0.9743736 0.82047296 0.25234914 0.49493444
