src/control/models/test.tflite (tflite, 1792 bytes, 4 tensors)

eval_net/l2/b2 f4 [1, 3]
00000000: cdcc cc3d cdcc cc3d cdcc cc3d
0.1 0.1 0.1

eval_net/l1/b1 f4 [1, 10]
00000000: cdcc cc3d cdcc cc3d cdcc cc3d cdcc cc3d
00000010: cdcc cc3d cdcc cc3d cdcc cc3d cdcc cc3d
00000020: cdcc cc3d cdcc cc3d
0.1 0.1 0.1 0.1 0.1 0.1 0.1 0.1
0.1 0.1

eval_net/l1/MatMul f4 [10, 2]
00000000: 24cc bc3d 58d8 473e ef51 eb3b 7ccf 893e
00000010: 1be6 173e 912f f0bd 3d61 873e c0db 5cbd
00000020: 8c03 203d 630b 543e 49e6 6ebe 5e00 29bc
00000030: 2c45 acbe e310 2bbe 21f7 9dbe 0b39 cfbe
00000040: ce62 e7bd 01ad 413e b180 bebe e2aa b2be
0.09218624 0.19516122 0.007181398 0.2691611 0.14833872 -0.117278226 0.26441374 -0.053920507
0.039065883 0.20707469 -0.23330034 -0.010315029 -0.33646524 -0.1670566 -0.30852607 -0.40473208
-0.112981424 0.18913652 -0.3720756 -0.34895998

eval_net/l2/MatMul f4 [3, 10]
00000000: 81e3 87bc 3f39 123f 20aa e23e 4bfa 4c3e
00000010: b0e5 2dbf 053d 013d 3404 a2be fc81 dcbd
00000020: 329f 25bf bb4d 473f 531d e03e df5a d93e
00000030: 09ed 9bbe e999 a83e 75e1 51be 63c2 9cbe
00000040: 1c39 973e 5266 8fbe 7667 113f 9257 16be
00000050: 7604 cb3c a7a4 4dbe 97df 07be 2433 113e
00000060: ea8a 07bf a9bc 623f 70c6 46be 2a1b a53b
00000070: e8b7 ee3d 1f50 49bd
-0.016587975 0.571186 0.4427042 0.20017354 -0.679286 0.031552333 -0.31643832 -0.1076698
-0.6469604 0.7785298 0.43772373 0.42452142 -0.3045428 0.32929924 -0.20496161 -0.30617055
0.29535758 -0.28007752 0.56798494 -0.14681843 0.0247824 -0.20082341 -0.13268887 0.14179665
-0.5294634 0.8856912 -0.19411635 0.0050386386 0.11656171 -0.049148675
